…
root_mlp.2.linear.0.bias
root_mlp.2.linear.2.weight
root_mlp.2.linear.2.bias
root_mlp.3.weight
root_mlp.3.bias
term_mlp.0.weight
term_mlp.0.bias
term_mlp.1.linear.0.weight
term_mlp.1.linear.0.bias
term_mlp.1.linear.2.weight
term_mlp.1.linear.2.bias
term_mlp.2.linear.0.weight
term_mlp.2.linear.0.bias
term_mlp.2.linear.2.weight
term_mlp.2.linear.2.bias
term_mlp.3.weight
term_mlp.3.bias2021-02-04 05:34:26,258 - INFO - Saving 0 checkpoint to ./19th6/30_60_softmax_nounitnorm_features_16_1e3/0.pt

2021-02-04 05:34:26,906 - INFO - model architecture
2021-02-04 05:34:26,906 - INFO - CPCFGProjDebugBand(
  (rule_mlp): Linear(in_features=256, out_features=8100, bias=True)
  (root_mlp): Sequential(
    (0): Linear(in_features=256, out_features=256, bias=True)
    (1): ResLayer(
      (linear): Sequential(
        (0): Linear(in_features=256, out_features=256, bias=True)
        (1): ReLU()
        (2): Linear(in_features=256, out_features=256, bias=True)
        (3): ReLU()
      )
    )
    (2): ResLayer(
      (linear): Sequential(
        (0): Linear(in_features=256, out_features=256, bias=True)
        (1): ReLU()
        (2): Linear(in_features=256, out_features=256, bias=True)
        (3): ReLU()
      )
    )
    (3): Linear(in_features=256, out_features=30, bias=True)
  )
  (term_mlp): Sequential(
    (0): Linear(in_features=256, out_features=256, bias=True)
    (1): ResLayer(
      (linear): Sequential(
        (0): Linear(in_features=256, out_features=256, bias=True)
        (1): ReLU()
        (2): Linear(in_features=256, out_features=256, bias=True)
        (3): ReLU()
      )
    )
    (2): ResLayer(
      (linear): Sequential(
        (0): Linear(in_features=256, out_features=256, bias=True)
        (1): ReLU()
        (2): Linear(in_features=256, out_features=256, bias=True)
        (3): ReLU()
      )
    )
    (3): Linear(in_features=256, out_features=10004, bias=True)
  )
)
2021-02-04 05:34:34,694 - INFO - Starting epoch 1
2021-02-04 05:35:36,223 - INFO - Epoch: 1, Batch: 1000/9996, |Param|: 231.863123, |GParam|: 3.00,  LR: 0.0010, H: 0.000, D: 0.000, C: 0.000, ReconPPL: 807.44, KL: 0.0000, PPLBound: 807.44, ValPPL: 100000.00, ValF1: 0.00, CorpusF1: 0.00, Throughput: 54.04 examples/sec
2021-02-04 05:35:36,224 - INFO - Gold Tree: ((the (health (and (human (services department))))) (currently (<unk> (((the (national institutes)) (of health)) (from (funding ((abortion research) (as (part (of (its ((N million) (contraceptive program)))))))))))))
…
